modules/intent_recognition/data.pth (torch, 4479 bytes, 6 tensors)

l1.weight f4 [8, 40]
00000000: d03c 2dbd 9f8e 9ebd 0f69 ba38 43d0 adbd
00000010: 01a9 f23e e9ec 10be 3afe c53d 66af d03d
00000020: a5a1 aebd d0a4 f8bc e565 a6bd 40d5 333d
00000030: 7355 bcbd 0d8f bc3d ba72 98bd 2103 053e
00000040: 0025 aebd 538e 163e 9863 f83b d651 803d
00000050: ce4c 1dbe 9d70 38bd 99cc 8cbd 3c14 dfbd
00000060: 713d ae3e ec4e 09be 36ae 46bd 731c 8e3e
00000070: 2a57 a53d 3116 4e3d 1a9b db3d 15b2 9bbe
00000080: 028b 1b3c e62e 5abe db11 4c3e e322 bbbd
00000090: 7e60 673e 89c1 113e d0d2 3a3c c080 703c
000000a0: 4dcf 8ebd 3851 aa3d 0be3 79be df69 19be
000000b0: d422 81be e6cb e13e 92bb 043e 1ea9 ca3d
000000c0: 2082 c2bb 177e 703d 84c6 803e dd04 0d3e
000000d0: 8530 94bd 310c 983d d038 1d3e 78df 433c
000000e0: 09aa 1dbd 40da b13d b685 55be c0c6 0c3e
000000f0: 8954 a8be 6d91 4c3e cc65 9dbe 0c96 c9be
00000100: 0e8d f9be 3339 923e 2e1b 10be 731e a1be
00000110: e022 ea3b 783f 953e 9640 a23e be0f 233f
00000120: a1d0 ca3e 5767 443e 9afd 77bd f6e3 0abe
00000130: d7e5 773e 709d d3bc f0ba e13c 65d9 213e
00000140: a04b 3b3c 7092 d03c 8c6e b73e a5a4 5c3e
00000150: 0869 c13e 14af 94be b8cf 0bbe d272 8fbd
00000160: ccd7 63bd db36 d13d 3ff2 b8bd b0e6 6dbc
00000170: 6a2e 8d3e dd11 823d 7fea f23d a78c 933d
00000180: 1aab ad3b 0256 7f3d c0eb 323e 59f1 903d
00000190: 300a ed3e f7d4 f5bc de1c e63e a016 ba3e
000001a0: e3b9 4f3e 8de6 a3be f171 873e 325c 533e
000001b0: 20e4 d6bb d21c b7be 1f46 82be 9c21 87be
000001c0: 33d1 81bd 5916 9fbe 8311 053e 0e44 013e
000001d0: cb43 fa3d a1bf d03e 2073 9abd 80c5 e3bb
000001e0: 62c8 00be 90df 3e3c ab74 473e 2ead ff3d
000001f0: 7c3b df3e b7e3 95be 1a01 c73c 3021 5a3c
00000200: 0395 143e 44fd 313d 2b67 bcbd b2f1 04be
00000210: bc11 2f3e 6857 d13d 9ff5 d83a e196 863e
00000220: f47a 3f3e a228 513e 9aa6 e73d cd3c af3d
00000230: 9c67 9d3e 4d4e 1bbc b9ac 073f 4ddb 003f
00000240: c6ad ed3e 0a92 9fbe a7b7 513e 8355 a03e
00000250: c070 f63c 1f42 31be 5264 a5be 23e2 77be
00000260: d9c7 dbbd ddfe 86be 1e09 9e3e 1176 603e
00000270: 5d9d 033e fb14 8d3d 60a3 803d e01b ffbb
00000280: 1e90 c4bd 3c8a cabd 60f9 1abe 1ca6 7c3d
00000290: 4c2d 00be d109 193f 4184 0f3f 33b6 013e
000002a0: ba97 babd 80a7 2bbd 195f 13be 395e 82bd
000002b0: 28d9 fa3c 8b04 8bb8 c510 883e 024e 923b
000002c0: 49fa e33d 8e9a 243e 72d7 fcbd 6797 03ba
000002d0: 471c 4ebe 07c1 8dbb 8a8b a93d 66cf d5be
000002e0: 74a0 0a3d 7c0d ea3e 1459 04be 000e 1b3a
000002f0: 4270 f83d 00b8 8bbd 0685 983e 6455 803f
00000300: bf7c b73e 37b3 edbd 6393 e2bd 80fb bf3d
00000310: 7655 98bd a2f1 07be 8375 103e ccd2 153d
00000320: d1c1 b4bd f02c 6b3d 8d76 58be b4ce 4a3a
00000330: d4b0 6dbe d4f9 973e 2b32 ce3d d480 9f3d
00000340: 06e8 c53d d04b 673c dac2 8c3e 6ed6 ed3d
00000350: bf00 97bd 70a1 6b3d d8ac 353e d4f3 023d
00000360: 2475 ebbc 731f d63d 3a28 523e 3208 2c3d
00000370: 0886 c7be a05c 013e 08f2 02bf 321f debe
00000380: 5304 dabe ef91 9e3e 96fe dbbd e583 adbe
00000390: b00a 09be 1e23 003f 70fc 993e e480 0d3f
000003a0: d30e 593e 4e7d b93e 29e5 07be 8c27 03bd
000003b0: c0b5 7b3e 2cc2 36be c57a 093e ea45 49bd
000003c0: e060 a5bc 4d8e 94bd 0360 2dbe 68c9 1fbe
000003d0: 92b5 5dbe dc36 f53e b0fb b53e 3fdc 86bd
000003e0: 1610 06be 005f 72bc 1b6f 033e 2988 03be
000003f0: bcba ebbd e76b 823d d0f9 df3d 3b38 75bd
-0.042294323 -0.077420466 8.88874e-05 -0.084869884 0.47394565 -0.14152874 0.096676305 0.101897046
-0.08526925 -0.030352026 -0.081249036 0.043904543 -0.09195986 0.09206972 -0.07443757 0.12989475
-0.08503151 0.1470273 0.007580232 0.06265609 -0.1536133 -0.04502927 -0.068749614 -0.10892531
0.3403125 -0.13409013 -0.048505984 0.2775608 0.08073266 0.050314132 0.10722943 -0.30409303
0.009493591 -0.21306953 0.19928686 -0.091375135 0.22595403 0.14233984 0.011402801 0.014679134
-0.06973133 0.083162725 -0.24403016 -0.14981793 -0.25221884 0.44100875 0.12962177 0.09895538
-0.0059359223 0.058714 0.25151455 0.13771386 -0.07235817 0.074242 0.15353703 0.011955135
-0.038492236 0.08684206 -0.20851788 0.13747692 -0.32876995 0.1997735 -0.30741727 -0.3937229
-0.4874043 0.28559265 -0.14072868 -0.31468543 0.0071452707 0.29149985 0.316899 0.63695896
0.39612296 0.19180046 -0.060544588 -0.13563523 0.2420877 -0.025831908 0.027554959 0.15805586
0.011431605 0.025460452 0.35826528 0.21547182 0.37775445 -0.29039824 -0.13653457 -0.07004322
-0.05562572 0.10215541 -0.0903058 -0.014520332 0.27574474 0.063510634 0.11861133 0.07204562
0.005299938 0.062337883 0.17472744 0.070772834 0.46296835 -0.030008776 0.449439 0.36345387
0.20285754 -0.32011834 0.26454118 0.20640638 -0.0065579563 -0.35764176 -0.25444123 -0.2639283
-0.0633873 -0.31071737 0.12994961 0.12623617 0.12219962 0.407712 -0.075414896 -0.006951034
-0.1257644 0.011649981 0.19478099 0.12484203 0.4360007 -0.29275295 0.024292517 0.013313577
0.14509968 0.043454424 -0.09199365 -0.12982824 0.17096609 0.102217495 0.0016552693 0.26286986
0.18699247 0.20425656 0.113110736 0.08556519 0.3074311 -0.009479118 0.5299793 0.50334626
0.4642164 -0.31166106 0.20480214 0.3131524 0.03008306 -0.1731038 -0.323031 -0.24207358
-0.10731477 -0.2636632 0.3086633 0.21920039 0.12852998 0.06888767 0.06281161 -0.0077853054
-0.09597801 -0.09889647 -0.15134192 0.06168185 -0.1251728 0.59780604 0.5606118 0.1266716
-0.09110971 -0.041907787 -0.14391746 -0.06365628 0.030621126 -6.628883e-05 0.26575294 0.0044648657
0.111317225 0.16074583 -0.123457804 -0.0005019814 -0.20127974 -0.004325989 0.08278568 -0.41759795
0.033844426 0.45713413 -0.12924606 0.0005914867 0.121307865 -0.068222046 0.2978899 1.0026059
0.3583736 -0.11606448 -0.11063268 0.09374142 -0.074381754 -0.1327577 0.14107327 0.036577985
-0.0882603 0.057415903 -0.21138974 0.00077364896 -0.23211986 0.2968279 0.100681625 0.07788244
0.096633956 0.014117196 0.2749241 0.11613165 -0.07373189 0.057527006 0.17741716 0.031970814
-0.02874238 0.10455217 0.20523158 0.042000003 -0.38969445 0.1263299 -0.5115056 -0.43383175
-0.42581424 0.30970713 -0.10741918 -0.3388969 -0.13382983 0.50053585 0.30075407 0.55274796
0.21197061 0.36228412 -0.13271011 -0.032020137 0.24581051 -0.17847508 0.13425739 -0.04913894
-0.020187795 -0.07253704 -0.16931157 -0.15604174 -0.21651295 0.47893417 0.35543585 -0.06584977
-0.13092074 -0.014793158 0.12835352 -0.1284491 -0.11510226 0.06368237 0.1093632 -0.05986808

l1.bias f4 [8]
00000000: 3ede 53bc 6ffb a13e 9951 e53e e689 923e
00000010: 6120 263d 77fc 913e 189f 913e f333 ea3e
-0.012931405 0.3163714 0.44788817 0.28620833 0.040558223 0.28512928 0.2844169 0.4574276

l2.weight f4 [8, 8]
00000000: b558 643f ce93 b3be a37e 5c3f 9d16 0b3f
00000010: 8192 33be 44b5 d4be 7b2c 40bd dcb2 a33d
00000020: 77ad 2bbf a50b 403f 46ef 70be cad8 f3be
00000030: fd1e 243f 5327 493f c996 003f b6ac 4e3f
00000040: 40f8 963c 2ff4 e1bd c0a4 f9bd 097e b4be
00000050: 50ba 69bd 0715 1f3e 4cea a7be 2da7 873e
00000060: 5623 393f b706 7cbe 084f 643f fc13 3b3f
00000070: 8e01 8bbe cf08 24bf f9a0 333e b9fc 6f3e
00000080: 8187 9f3e fdef 70bd feb7 5a3f b480 413f
00000090: 9b42 06bf bfd5 99be 8c1d 0dbf 3fa8 1f3c
000000a0: 39e2 4cbf 9f63 083f 8314 d9be 443b 8dbe
000000b0: 9c61 6b3f 61c2 383f 4773 0d3f 8a2c 2f3f
000000c0: 2571 053f f1b1 00bd 2ffd 5d3f 36c5 393f
000000d0: d247 dabd dc57 033d f33f 1bbf 45c6 8fbe
000000e0: b162 5b3f 801b 8cbe 3d28 563f 74c8 4f3f
000000f0: 29a3 d8bd 1a27 26be cfd4 9bbe 5dbc 2a3d
0.89197856 -0.35073704 0.8613073 0.5433138 -0.17536356 -0.41544545 -0.04691742 0.07993099
-0.6706156 0.7501777 -0.23528776 -0.47626334 0.64109784 0.7857563 0.5023008 0.80732286
0.018428922 -0.110329024 -0.12189627 -0.35252407 -0.057062447 0.15535365 -0.32795942 0.26494732
0.72319543 -0.24611937 0.8918309 0.7307737 -0.27149624 -0.6407594 0.17541875 0.2343625
0.3115807 -0.05882262 0.85437 0.7558701 -0.5244538 -0.30045888 -0.5512321 0.009744703
-0.8003269 0.5327701 -0.42398462 -0.2758428 0.91945815 0.721716 0.55254024 0.68427336
0.5212577 -0.0314197 0.8671445 0.72566545 -0.1065823 0.03206621 -0.60644454 -0.28080955
0.85697466 -0.2736473 0.8365515 0.8116524 -0.10577995 -0.16225854 -0.30435798 0.041683543

l2.bias f4 [8]
00000000: 4ea8 913e b245 e63e e8e1 25be 2bca 6d3d
00000010: be15 d43e e69f b63e a36a ba3e 1aee 253e
0.2844872 0.44975048 -0.16199458 0.05805413 0.41422838 0.35668868 0.36409482 0.1620411

l3.weight f4 [2, 8]
00000000: d522 43bf 1d24 1a3f f111 24be 358f 6cbf
00000010: d57d 6cbe 316d 8d3f 7c0f 92be 3188 32bf
00000020: 5707 dc3e 5d21 37bf 0d02 24bd e565 0a3f
00000030: bb32 0d3f 83c2 41bf 03da 373f a171 133f
-0.76225024 0.60211354 -0.16022469 -0.92406017 -0.23094876 1.1048948 -0.2852744 -0.6973906
0.4297435 -0.71535283 -0.04004102 0.5406173 0.55155534 -0.75687426 0.71817034 0.5759526

l3.bias f4 [2]
00000000: 93e8 a53e 60ca 413e
0.32404003 0.18924856
