modules/intent_recognition/data.pth (torch, 4479 bytes, 6 tensors)

l1.weight f4 [8, 40]
0	0xbc411670	-0.011785135
1	0x3e152ed1	0.1456864
2	0x3ee19033	0.44055328
3	0x3da83304	0.082128555
4	0x3dfc58f1	0.12321652
5	0x39f3c1e9	0.00046493046
6	0x3d326160	0.043549895
7	0x3d59531c	0.053057775
8	0x3c096e10	0.008388057
9	0x3e685d44	0.22691828
10	0xbdc3b02b	-0.09555086
11	0x3d3bcbc4	0.045848623
12	0x3ec5a946	0.38605708
13	0xb89419d2	-7.061999e-05
14	0x3e8239f9	0.25434855
15	0xbdd711c7	-0.10501438
16	0x3daadfb5	0.0834345
17	0x3e444009	0.19165052
18	0x3da6fb6a	0.08153422
19	0xb8904845	-6.879916e-05
20	0x3eec0bc5	0.4610273
21	0xbd3eeb53	-0.04661114
22	0xbe07e0c3	-0.13269334
23	0x3f084680	0.53232574
24	0xbde3aeea	-0.111173466
25	0xbe172ffa	-0.14764395
26	0xbe202463	-0.1563888
27	0xbe059890	-0.13046479
28	0xbe214b2f	-0.15751337
29	0xbd5e4a04	-0.054269806
30	0xbe951bdf	-0.29122826
31	0xbbeed476	-0.007288511
32	0xbe17a526	-0.14809093
33	0xbd7cc718	-0.061713308
34	0x3eb73cd2	0.3578859
35	0x3e93160a	0.28727752
36	0x3d523514	0.05132015
37	0x3be3b800	0.0069494247
38	0xbd9871db	-0.07443591
39	0xbd5b288a	-0.053505458
40	0xbd5935a0	-0.053029656
41	0xbdd8a4e2	-0.10578324
42	0x3e2721e7	0.16321526
43	0x3ea2ba9c	0.31782997
44	0x3f028a5d	0.50992376
45	0xbe375f63	-0.17907481
46	0xbd79cd3f	-0.060986754
47	0x3d3ea494	0.046543673
48	0x3cf98d90	0.03046301
49	0x3ea5a5a1	0.32352927
50	0x3dd752e8	0.1051386
51	0x3c8d20a0	0.01722747
52	0x3db7a7b2	0.08967532
53	0x3d962e11	0.07333005
54	0xbd7ff7fc	-0.062492356
55	0x3da612df	0.08109068
56	0xbd7247d8	-0.059150547
57	0x3ceb8bc4	0.028753169
58	0x3e2412a0	0.1602273
59	0x3d913072	0.07089318
60	0x3ec68bb0	0.38778448
61	0x3dcc4381	0.09973813
62	0x3ee5a714	0.44854033
63	0xbe11618c	-0.14197367
64	0x3ec96459	0.39334372
65	0xbe89a260	-0.26881695
66	0x3ee01b25	0.4377071
67	0x3e4b1b0a	0.19834533
68	0x3d5b17e0	0.053489566
69	0xbeca38d2	-0.39496475
70	0xbe0cb535	-0.13741
71	0xbed41930	-0.41425467
72	0xbdb7c303	-0.089727424
73	0xbeaa93cd	-0.33315888
74	0x3e82beae	0.25536102
75	0x3ed02e32	0.40660244
76	0x3dbeb199	0.09311218
77	0x3efe28e2	0.49640566
78	0xbd4cd23e	-0.05000519
79	0xbe19c7b3	-0.15017585
80	0xbde9da07	-0.114185385
81	0x3d39c580	0.045354366
82	0x3e015195	0.12628777
83	0xbb201680	-0.0024427474
84	0x3e8d3380	0.27578354
85	0xbd8406b9	-0.06446595
86	0x3c4ba7f6	0.012430182
87	0x3e0de2d9	0.13856067
88	0x3d71beec	0.059019968
89	0x3df2eaba	0.11861177
90	0xbdc17495	-0.094460644
91	0x3d51c1f0	0.051210344
92	0x3ea5da71	0.3239322
93	0x3df2e32f	0.11859738
94	0xbddd88a0	-0.10817075
95	0x3e2c70ea	0.16839948
96	0xbc1c32d0	-0.009533599
97	0x3e64cfda	0.22344914
98	0xbc015b6c	-0.007895332
99	0x3e2931e2	0.16522935
100	0x3e7b21c2	0.24524596
101	0xbdb1d69c	-0.086835116
102	0xbe20a6e2	-0.1568866
103	0xbe04ca7a	-0.12967864
104	0x3eb231cc	0.34803617
105	0xbe8d0682	-0.27544028
106	0xbe19fe34	-0.15038377
107	0x3eb43875	0.35199323
108	0x3d9aebdc	0.07564518
109	0x3d2cff66	0.042235754
110	0xbdebb964	-0.1150997
111	0xbed3267c	-0.412403
112	0xbe55d264	-0.20881039
113	0xbe79d871	-0.24398972
114	0xbc777b4a	-0.015105078
115	0x3e431654	0.19051486
116	0x3e44a3b0	0.19203067
117	0xbdd2613e	-0.10272454
118	0xbd4934fa	-0.049122788
119	0x3db2c1be	0.0872836
120	0xbd16cbf6	-0.036815606
121	0xbda4677f	-0.08027553
122	0x3eab81ef	0.3349757
123	0x3e365a3f	0.17807864
124	0x3ec50286	0.38478488
125	0xbda31cbc	-0.07964465
126	0xbdf93f07	-0.12170225
127	0x3e182a95	0.14859994
128	0xbdd575dc	-0.104228705
129	0x3e6f09fa	0.2334365
130	0xbda8c0ad	-0.08239875
131	0x3dd308da	0.10304423
132	0x3eb78145	0.35840812
133	0x3d3f3a58	0.0466865
134	0x3e1b1ed6	0.15148482
135	0x3da5aefa	0.08090015
136	0xbd860790	-0.06544411
137	0xbcd49da7	-0.02595408
138	0x3db506f0	0.08839214
139	0x3d0dd355	0.03462537
140	0x3ec5499b	0.3853272
141	0xbc82cdd6	-0.01596729
142	0x3f077365	0.52910453
143	0x3efde3bf	0.4958782
144	0x3ebc8998	0.36823726
145	0xbe339378	-0.17536724
146	0x3e64e3f4	0.22352582
147	0x3e378b55	0.17924245
148	0x3ca2b7b0	0.01986298
149	0xbe7d0aed	-0.24711199
150	0xbe912480	-0.2834816
151	0xbef21bad	-0.4728674
152	0xbe08d212	-0.13361385
153	0xbe9ff65d	-0.31242648
154	0x3e9f74ec	0.31143892
155	0x3da027d7	0.07820099
156	0x3e50d519	0.2039379
157	0x3e533571	0.20625855
158	0x3d271ad8	0.040797085
159	0x3bde9360	0.006792471
160	0x3dfb511e	0.12271331
161	0x3dfe71b2	0.124240294
162	0xbe4b7632	-0.19869307
163	0x3bf74ec5	0.007547232
164	0xbe3f7f30	-0.18700862
165	0x3ede961c	0.434739
166	0x3e313ab6	0.17307553
167	0xbe21e893	-0.15811376
168	0x3df01516	0.11722772
169	0xbcf09148	-0.02936615
170	0x3ee71ba2	0.4513827
171	0x3d977ab4	0.07396451
172	0xbe221715	-0.15829118
173	0xbb5e7557	-0.0033944452
174	0x3daaff79	0.08349509
175	0xbd807962	-0.06273152
176	0x3dfa3295	0.12216679
177	0x3e4a6729	0.19765915
178	0x3d72f472	0.059315152
179	0x3d4f88a1	0.05066741
180	0xbeda50bf	-0.4263973
181	0x3d9e04bf	0.07715749
182	0xbef77463	-0.48330984
183	0xbf027210	-0.50955296
184	0xbf089319	-0.53349453
185	0x3e981205	0.29701248
186	0xbe2de9ce	-0.1698372
187	0xbe962b2f	-0.2932982
188	0xbdcbc4f8	-0.09949678
189	0x3eb260a2	0.3483935
190	0x3ef7164d	0.48259202
191	0x3ee7ffdf	0.45312402
192	0x3dc67619	0.09690494
193	0x3e715cfb	0.23570625
194	0xbe8b2642	-0.27177626
195	0xbddb2403	-0.10700228
196	0x3e945935	0.2897431
197	0xbe4df9d5	-0.20114835
198	0x3de0bcce	0.10973512
199	0x3d9f92bc	0.07791659
200	0xbd646448	-0.0557597
201	0xbe02728a	-0.12739006
202	0x3eae5d53	0.34055576
203	0xbdde8564	-0.10865286
204	0x3f00be31	0.5029021
205	0xbe19ac1c	-0.15007061
206	0xbd838d94	-0.06423488
207	0xbd57f864	-0.052727118
208	0xbe05d76e	-0.13070461
209	0x3d3955b9	0.045247767
210	0xbdf4dad6	-0.11955802
211	0xbdb14b9c	-0.086569995
212	0x3ee587d6	0.44830197
213	0x3e04cc86	0.12968644
214	0x3e0b55b8	0.13606918
215	0x3e1b701b	0.15179484
216	0x3e398754	0.1811803
217	0x3c7a6740	0.015283406
218	0x3e828c66	0.2549774
219	0x3e1378f3	0.14401607
220	0x3e9004c4	0.28128636
221	0xbe22961c	-0.15877575
222	0x3e8b8192	0.27247292
223	0x3f0c1eed	0.5473469
224	0x3efb0270	0.49025297
225	0xbe6b17e0	-0.22958326
226	0xbd599aae	-0.05312603
227	0x3eec3c22	0.46139628
228	0xbd38029c	-0.044924363
229	0xbe06c9e5	-0.13162954
230	0xbeb4a793	-0.352841
231	0xbedbe5db	-0.42948803
232	0xbdfd293b	-0.1236138
233	0xbe898959	-0.268626
234	0x3ec8722b	0.39149603
235	0x3cb13c24	0.021635123
236	0x3e862f4c	0.2620796
237	0xbe099d65	-0.13438947
238	0x3d5af9bc	0.05346082
239	0xbe096631	-0.13417889
240	0x3d2b6ee0	0.041853786
241	0xbd89cae2	-0.0672815
242	0xbd429ace	-0.047510915
243	0xbc06bda2	-0.008223923
244	0xbe8c388d	-0.27386895
245	0x3f07d026	0.53051984
246	0x3e30bb18	0.1725887
247	0x3dc4a416	0.096016094
248	0xbdcf945e	-0.10135721
249	0xbc38d72c	-0.01128177
250	0x3e342b98	0.17594755
251	0xbe0c6fe9	-0.13714565
252	0xbdad825e	-0.08472131
253	0x3e5d8191	0.21631457
254	0x3e1f18fb	0.15536873
255	0x3ca00e1b	0.019537976

l1.bias f4 [8]
0	0xbd345c54	-0.044033363
1	0x3e75d091	0.24005343
2	0x3d54db19	0.05196676
3	0x3e4e259b	0.20131533
4	0x3eba14e5	0.36344066
5	0x3e5b6ff8	0.21429431
6	0x3edef556	0.4354655
7	0x3f00eb01	0.5035859

l2.weight f4 [8, 8]
0	0xbe99a6f1	-0.3001018
1	0xbdfb64af	-0.12275063
2	0xbea87897	-0.32904503
3	0xbf1654ac	-0.5872295
4	0x3f121d5f	0.57076067
5	0xbe75e79f	-0.24014138
6	0x3f7c266b	0.9849612
7	0x3f644c27	0.891787
8	0x3e982c5c	0.29721344
9	0x3f30cab1	0.6905928
10	0x3daf7af3	0.085683726
11	0x3ebc661d	0.36796656
12	0xbf218760	-0.6309719
13	0x3f4a5432	0.7903472
14	0xbd285eaf	-0.041105922
15	0xbe240dc1	-0.16020872
16	0x3ee357e9	0.44403008
17	0x3f14620d	0.57962114
18	0x3ee23ea1	0.44188407
19	0x3f4e60a7	0.8061623
20	0xbf0e166d	-0.5550297
21	0x3f4474ac	0.7674053
22	0xbb9e9c7d	-0.004840432
23	0xbe1c6630	-0.15273356
24	0x3ebf7bc7	0.37399122
25	0x3f2f064d	0.6836899
26	0x3f5278ea	0.8221575
27	0x3f541b8d	0.8285454
28	0xbef7103e	-0.4825458
29	0x3e96660e	0.29374737
30	0x3e63b1ad	0.22235747
31	0xbe0605ce	-0.13088152
32	0xbe448656	-0.1919187
33	0x3dc01705	0.093793906
34	0xbe894e77	-0.26817676
35	0x3e21551d	0.15755124
36	0xbe044d1c	-0.1292004
37	0xbe52704f	-0.20550655
38	0xbe334d53	-0.17509966
39	0x3e9e8d8f	0.30967376
40	0x3f125550	0.57161427
41	0x3f44abfd	0.76824933
42	0x3fa24112	1.2676108
43	0x3f939568	1.152997
44	0xbe96eacc	-0.2947601
45	0x3f5b0c15	0.8556531
46	0xbdddb2ba	-0.10825105
47	0xbde71560	-0.11283374
48	0xbe5684a6	-0.20949039
49	0xbf161cff	-0.58637995
50	0xbeed7b67	-0.4638321
51	0xbec4d95e	-0.38447088
52	0x3ebd95c7	0.37028334
53	0xbe43d8bf	-0.19125651
54	0x3f6e5b41	0.9310799
55	0x3f706d11	0.9391642
56	0x3e91a939	0.2844942
57	0xbcbebaa0	-0.02328235
58	0xbe3f65a0	-0.1869111
59	0x3e4017ca	0.18759075
60	0x3d5b6138	0.053559512
61	0xbd79c440	-0.060978174
62	0xbe945e4e	-0.289782
63	0x3e0c2f32	0.13689879

l2.bias f4 [8]
0	0x3ecc8d51	0.39951566
1	0x3efcfc58	0.49411273
2	0x3eb9b5e3	0.3627158
3	0x3e24454b	0.16042058
4	0xbe6188d0	-0.22024846
5	0x3e92ab99	0.28646544
6	0x3ef9dc2f	0.488008
7	0xbeac9f2a	-0.33715183

l3.weight f4 [2, 8]
0	0x3f43df23	0.76512355
1	0xbe93cfaa	-0.28869373
2	0xbf2cda4c	-0.67520595
3	0xbf4298da	-0.7601448
4	0x3e5083a8	0.20362723
5	0xbf998c1c	-1.1995883
6	0x3f1cb7bd	0.6121786
7	0x3e8df663	0.2772704
8	0xbf2c6794	-0.6734555
9	0x3f023959	0.50868756
10	0x3ee6dc0f	0.45089766
11	0x3f382c74	0.7194283
12	0x3e317752	0.17330673
13	0x3f99ce7a	1.2016137
14	0xbf3a3677	-0.72739357
15	0xbd26abc8	-0.040691167

l3.bias f4 [2]
0	0x3bf2b763	0.0074071153
1	0x3da92a4e	0.08260022
